federico/weights/sgdpp2-14/bias_i.npy (npy, 8128 bytes, 1 tensors)

array f8 [1000]
000000 7a dc 4e 8a e7 89 de bf 58 bd 8a 94 c3 c8 d6 bf
       -0.47716701990743327 -0.35600366121339766
000010 3f 37 35 0b c0 e6 d7 bf 28 4c 5a b4 20 45 b4 3f
       -0.3734588727428338 0.07917980578558625
000020 c2 bd 08 41 ea 12 d3 bf 73 99 a5 47 a1 69 ea 3f
       -0.29802948332777757 0.8253942870476706
000030 10 5b 82 65 48 45 da bf 9f 8f 98 38 df b2 94 3f
       -0.41047868645675667 0.02021359236654485
000040 c9 09 1b 69 50 8a ee bf da 3b c9 07 92 07 cb bf
       -0.9543840458721259 -0.21116853122882057
000050 15 03 b5 00 32 92 e2 bf 9b c5 2d fd 44 03 e5 bf
       -0.5803461087999461 -0.656649107446515
000060 8b 00 18 47 c9 25 d8 bf 30 30 26 53 f6 25 e2 3f
       -0.3773062891268714 0.5671340583808213
000070 0c 81 6a 5b 52 db e6 bf ab 57 c2 9b 63 3c db bf
       -0.7142726693601005 -0.42556085787634385
000080 fb ae 0f 6b 9e 2d f3 bf b9 42 f4 79 77 44 f7 bf
       -1.1986374075012793 -1.4542155040582385
000090 d8 66 21 27 7f 46 d7 bf 0a ee cf d1 46 fe ed bf
       -0.3636777765401411 -0.9372896287817991
0000a0 2e 5b 19 9f 2b 30 d3 bf 8f 9b 3f 8b 0e 49 e8 bf
       -0.29981508767143594 -0.7589180679031972
0000b0 3c 39 47 02 7f 5e e0 bf 92 66 4d cf 26 cd c2 bf
       -0.5115351719376018 -0.1468857300013054
0000c0 8c 2e 20 ce f6 39 d4 bf a7 30 43 de 2e 19 d1 3f
       -0.31603784684623615 0.2671620531589362
0000d0 63 9e 2a 53 d2 e6 bb bf 5e 5d e2 45 cd 41 c9 bf
       -0.10899080782348274 -0.19732061302486675
0000e0 d4 c1 7e bb 8a 7d d3 bf 39 9b a4 98 7b 01 5c 3f
       -0.30453747091362726 0.0017093379015677547
0000f0 6b 98 88 49 58 93 e5 bf f5 00 40 7c db a6 da bf
       -0.67423643457438 -0.41643416532316674
000100 03 30 6b 02 45 ed dc bf 2d 82 1e 9f ba 90 db bf
       -0.4519817851657992 -0.43070855654699153
000110 4f ef 5f f1 96 60 e8 bf c2 42 bb 63 4b 48 db bf
       -0.761790725169229 -0.4262875055256182
000120 48 66 2e b6 26 c6 c0 bf e1 1d 6b aa e9 b9 e9 bf
       -0.13104709525650748 -0.8039444282994134
000130 67 9d 6f 41 57 65 ea bf 40 8d 43 fa 5a 49 bd bf
       -0.8248707082793033 -0.11440056428869116
000140 1f 20 2d 7e d9 36 f0 bf e5 ea 60 0e 35 98 d6 bf
       -1.0133910111198998 -0.35303999332579244
000150 4b 3d 9f 4a 1c 7e d1 bf b0 b3 ef 65 0f d4 d1 bf
       -0.273322174904895 -0.278568124339297
000160 56 3e 4c e0 1f 38 c8 3f 20 11 04 4a 04 d8 e2 3f
       0.18921278430979055 0.5888692327139644
000170 26 18 69 ac f2 6c da bf bb 74 bc 7b ec ab b4 bf
       -0.41289965474095636 -0.08074834843542338
000180 8f 3c 47 6a 9c bb f4 bf 58 22 d8 54 7a d5 eb bf
       -1.2958034659857594 -0.8698093087305763
000190 d0 fe bf dc c4 08 a9 3f 44 24 6a c2 48 09 c9 bf
       0.04889502711011817 -0.19559583180333295
0001a0 81 bd 59 25 fe 4a b5 bf 6c af 9b ac de 5b e5 bf
       -0.08317554866675005 -0.667464577794346
0001b0 48 f4 24 59 14 e6 b5 bf 74 8e 40 d5 b7 7f f2 bf
       -0.08554198433280746 -1.156181176201156
0001c0 4e 9b 28 96 61 3e df bf 70 dd 92 33 79 f5 e5 bf
       -0.4881824461357852 -0.6862150199221286
0001d0 ef 18 5b c1 a2 93 c4 3f a4 b6 6b 27 b3 88 e6 3f
       0.16075548592761588 0.7041869897781976
0001e0 f5 4f e5 aa 73 35 9c 3f 78 4f 4a a1 2f 39 d8 bf
       0.02754765253605736 -0.37849035979274204
0001f0 68 db 72 c1 e5 ec d2 bf 3b 74 f9 0a cd 8b de bf
       -0.2957090748927187 -0.4772827727482
000200 4c fe 81 a2 a2 f0 e7 bf ac 06 cb 1e 43 e9 c5 bf
       -0.7481244253139692 -0.17118109706466578
000210 e4 c1 f7 fc bc 6b d5 bf 0c c0 1f 14 67 89 d6 bf
       -0.334700820006246 -0.35213639226185545
000220 18 9f 05 d1 ed 8b 9a bf f4 8e 73 d0 2e 06 e5 bf
       -0.02592441166180412 -0.6570047446552665
000230 41 7e 84 58 c5 96 e0 bf f2 ee 6b a3 ab be c7 bf
       -0.5184046486719539 -0.1855063007313827
000240 26 8e 87 b5 8b 30 e2 bf e2 d9 33 59 6b 42 e4 bf
       -0.5684259934900566 -0.6331078283536125
000250 ca fd f7 79 6c 54 f1 bf 29 52 03 e1 d2 ee d7 3f
       -1.0831112636950473 0.3739516446487721
000260 0d 6d 35 39 10 a6 b6 bf f7 93 ba 22 ef 6b a3 bf
       -0.08847142597862874 -0.0379328470128612
000270 6b 09 17 2b a2 0a ca bf e8 3a 7d 50 b2 15 dc bf
       -0.20344950775149626 -0.4388242517497205
000280 71 b1 7e 3f 75 97 d7 bf 57 39 88 48 dd 84 d7 bf
       -0.368619262701734 -0.3674843986817868
000290 db 3a ef 99 fb 53 d7 bf fd 7a 38 a0 d4 59 d4 3f
       -0.36450090439477173 0.31798282286210605
0002a0 a6 36 26 23 d3 9a e2 bf e9 7c 25 8d 00 0a a6 bf
       -0.5813995062360007 -0.043045060376920415
0002b0 d4 6c 35 43 3b ae e1 bf a5 81 63 40 0d cd de bf
       -0.5525184929532778 -0.48126536643942536
0002c0 40 20 95 a7 bd 2d d1 3f ca 41 77 1f bc 99 e7 bf
       0.2684167992160873 -0.7375164618079506
0002d0 d8 c3 f2 c5 f0 5e df bf cf 96 1b 27 d4 7e e1 bf
       -0.49016970950020555 -0.546732021696437
0002e0 22 62 0f 48 8f e0 ba bf ae 23 d1 9e ad 4b 98 3f
       -0.10498900899200028 0.023726189440171623
0002f0 15 49 e9 76 e9 de c6 3f b2 21 5c cd 63 af f3 bf
       0.17867773348059104 -1.230319788157527
000300 a3 61 ac 10 c3 74 f3 bf 7f 1e 14 a1 be e2 e4 bf
       -1.2160063411048234 -0.6526787897173135
000310 0c 72 12 cb 49 bc ab bf 49 26 84 23 38 01 de bf
       -0.05417090038210767 -0.46882441967372707
000320 58 08 8e 62 65 27 c8 bf b7 13 fe a9 cf 1c d5 3f
       -0.18870227157828157 0.3298834953387159
000330 12 1a 0f 9c 87 54 e8 bf c8 a0 a8 f7 db be f2 bf
       -0.760318569948881 -1.1715964960258578
000340 cc 63 6b 3b 8c f5 e4 bf 28 bf 17 6b 95 37 ab 3f
       -0.6549740944420761 0.0531584447124927
000350 f0 a9 a8 d1 58 9b e0 bf 65 a5 be 99 a7 e5 e5 bf
       -0.5189632506274489 -0.6842840197397605
000360 ec cf a7 8e 96 f6 ee bf 52 1c 9e 5f f6 2e dd bf
       -0.9676010881653361 -0.4559913572088067
000370 34 36 6a 7b 43 7d cc bf a8 41 5b 78 5d b0 b9 3f
       -0.22257274175756125 0.10034736812963863
000380 ef 53 4b 8c a6 62 e8 bf 28 41 9e 27 b7 7e f2 bf
       -0.762042306911665 -1.1559363887391303
000390 e5 a3 eb f2 cc ea f5 bf ca 20 74 30 67 8d dc bf
       -1.3698243607598155 -0.44613055927085254
0003a0 9b fc 83 3f 7e a4 c0 bf 8c 5d 12 ff 35 0b de 3f
       -0.13001993275972698 0.4694342604575119
0003b0 03 a5 2a 97 d6 3d e9 bf a8 f8 9f 08 8c 1c d4 bf
       -0.7887986137840531 -0.31424237100862706
0003c0 51 08 6b a9 80 65 d6 bf 12 5b ec c6 fa 71 e2 bf
       -0.349945226142272 -0.5764135251255047
0003d0 20 e4 30 02 46 b3 e9 bf fd 98 01 35 ff fd e2 bf
       -0.8031339686195942 -0.5935054812696589
0003e0 31 6a 6c fa 9f 5b ec bf 54 83 0f 46 f8 a1 bf bf
       -0.8861846819957632 -0.12356521330322084
0003f0 1d c7 e2 33 d1 10 da bf d5 48 26 94 8a cc cf bf
       -0.4072764403054963 -0.24842960580696763
000400 b4 07 a2 a1 38 0f ec bf 0d 0d 91 b0 07 ed e0 bf
       -0.8768580586331525 -0.5289343308035385
000410 f4 1a 2c dd d5 19 dd 3f ad 10 90 22 a2 9c d1 bf
       0.4547018680463417 -0.2751851403738879
000420 6c bd 27 70 37 38 e6 bf 9f c5 98 83 6c dc d4 3f
       -0.6943623724491039 0.3259536061405814
000430 71 d1 b5 57 03 c8 f6 bf ee 24 ef de 82 d4 db bf
       -1.4238313127690072 -0.4348456551638965
000440 be c1 83 f0 ff 19 d4 bf 3d 56 0e bd 2e b2 e3 bf
       -0.31408689964066727 -0.615500802278525
000450 a4 50 73 39 82 c9 bc 3f 7f be 9a 65 35 10 eb bf
       0.11244977858160837 -0.8457285866224565
000460 8a 51 6f 87 b6 40 e5 bf 95 d0 b7 26 1f 5f df bf
       -0.6641495366298369 -0.49018076687867423
000470 1f 84 87 c8 54 c2 de 3f 87 6f 84 0f 90 5d e1 bf
       0.48061103423066415 -0.5426712325165547
000480 3c 3d 33 ec 8e 08 ec bf 8c a8 b2 9b 29 f5 d8 bf
       -0.8760447133335343 -0.38996353344794765
000490 23 d1 40 79 b5 61 f0 bf 91 db da 5c 44 77 e4 3f
       -1.0238547073796063 0.6395589650700108
0004a0 25 d4 1e 27 c0 51 e8 bf 0b 48 ba be 97 db b9 bf
       -0.7599793209143441 -0.10100696951329284
0004b0 a0 60 f0 6b af 9d e3 bf e8 59 c5 00 7f 7d dd bf
       -0.6129986866171926 -0.46078467440875537
0004c0 3b c2 37 47 59 f6 e0 bf 8d 1f 13 34 91 61 d7 bf
       -0.5300718680355837 -0.36533002934856357
0004d0 16 24 2c 44 d2 4c d0 bf a5 d3 b0 48 62 f2 e9 3f
       -0.2546888032671303 0.8108378810635385
0004e0 d1 34 03 f1 8d 70 c7 3f 1c c7 d7 91 e0 a2 e0 bf
       0.18312238949002915 -0.519882473801974
0004f0 e6 ac 11 23 27 52 e1 bf 3b cb 78 50 bf 7e ed bf
       -0.5412784275953555 -0.9217220851627198
000500 76 29 28 eb 25 71 d8 3f d9 4f 61 83 37 ed ce bf
       0.38190601315059014 -0.24161428370518825
000510 4e 55 6e d4 92 3c e3 bf e7 02 18 ec 1f 11 ca bf
       -0.6011442326586491 -0.20364760425584125
000520 41 b1 0d 09 0d ff c6 bf b6 90 fa 02 5a 5d f0 bf
       -0.17965853635849707 -1.0227909199102618
000530 7d 85 e9 58 13 02 a2 bf 33 92 5d 20 41 40 ca bf
       -0.03517208538392944 -0.20508588867518682
000540 da 71 eb e7 9c 27 c0 3f 96 bc cb 7d 79 32 b2 bf
       0.12620889019207376 -0.0710826809042707
000550 40 69 6d ac e5 db de 3f 3f 9f e8 0b 76 b9 ea bf
       0.4821714576588825 -0.8351392967788128
000560 d6 f6 97 de 22 fa cc bf 66 cf 23 0a f5 f7 ae bf
       -0.22638355130032178 -0.060485513198641525
000570 84 0e 28 16 fa 7f e9 bf e8 df 75 ed 2f 1f df 3f
       -0.7968721802466949 0.4862785166692434
000580 fe c3 03 b6 4a 18 9d 3f 4c e4 d0 49 0c 5b e4 3f
       0.028412978514953828 0.6361142579763821
000590 37 a1 a1 58 72 a4 d6 bf f9 f1 1a c1 a4 b8 e8 bf
       -0.35378702788740973 -0.7725394984805113
0005a0 d1 40 8c 0e 53 e8 d0 bf 27 dd 09 6d 10 f6 e2 bf
       -0.2641799585408196 -0.5925371293696217
0005b0 cb c5 8e 22 0e 9c d1 bf c8 8d d4 af f3 30 ca bf
       -0.27514985441947876 -0.2046188934847193
0005c0 aa 17 10 b4 cd 70 e9 bf 4b 0b ca a0 34 72 ce bf
       -0.7950199620106464 -0.2378602776626287
0005d0 e9 9f f3 5b 94 ce dc bf 2b 56 ee 6f 80 9e d1 3f
       -0.45010861377386263 0.27529917650949426
0005e0 7b d6 d5 5c ef 2d d0 bf f9 7c f7 a7 be 16 e6 bf
       -0.2528036505312696 -0.690276458797512
0005f0 95 5c 73 31 0b 25 e4 3f 69 e3 be b8 27 f5 e5 bf
       0.629521938880219 -0.6861761673272727
000600 54 bd 05 af 46 31 cf 3f f5 53 4e 04 d3 24 e5 bf
       0.24369128747955904 -0.6607451519108724
000610 4f 13 a8 d0 c2 72 e4 bf 71 d2 4e 3f 8e 86 e6 bf
       -0.6390089106867921 -0.703925250671615
000620 77 21 69 d6 4e 03 c3 bf b8 7a 70 02 6b 89 cc 3f
       -0.14853845090170711 0.2229436647330283
000630 5c 10 8c d5 25 b9 e3 bf 36 fa 23 3e bd c5 9d bf
       -0.6163510485498693 -0.02907462779784905
000640 d2 57 9c e3 80 5b f0 bf 01 aa 7b 9c c2 71 e2 bf
       -1.0223397151034885 -0.5763867431936093
000650 e4 50 20 c7 72 ca d0 3f 42 c2 90 af 63 a5 f1 bf
       0.2623564667312748 -1.1028782709146445
000660 7c 33 07 5d 10 91 e8 bf 55 8b b2 bb b4 ff bd 3f
       -0.7677079979854251 0.1171830137487125
000670 6a d0 30 1e aa 09 e7 bf da 7d 09 be b6 a3 cb bf
       -0.7199297513639185 -0.21593364981798296
000680 ab 9d 32 72 21 95 e3 bf 6d 85 ea dc 18 dc c7 bf
       -0.6119544248985468 -0.186404331082524
000690 3b 23 7d 7e 6c 0d cb bf f6 c9 c1 93 f6 94 d6 bf
       -0.2113471620198427 -0.3528419917048774
0006a0 7c df bd c6 72 e2 96 3f e2 4a 32 ab 59 2c c6 3f
       0.022348206882696328 0.1732284627838317
0006b0 5d 0d b3 d4 e8 75 c2 3f f7 95 32 02 02 a1 d8 3f
       0.14422331224168775 0.3848271390400834
0006c0 88 86 da 51 09 ba b6 bf bc 80 a0 54 f7 ed d0 3f
       -0.08877619026545791 0.2645243002352904
0006d0 b0 34 17 1f 4f 5c b2 3f 3a aa 33 6b 3d c8 c5 bf
       0.07172102459954277 -0.17017333731139833
0006e0 7e 07 5c 64 36 95 d6 bf 72 2d 1a 20 ef 9e a8 bf
       -0.35285720635157947 -0.048087570828182616
0006f0 bb 2b 2b 5f a4 07 d5 bf 75 83 6b d4 48 be d2 bf
       -0.3285914353734218 -0.292864043656713
000700 98 77 24 90 90 d4 e0 bf d3 44 bc 1e e2 1b e2 bf
       -0.5259478392870163 -0.5659037208844445
000710 32 63 c7 85 87 7d d0 bf d8 e1 c5 3c 68 6f e2 bf
       -0.25766170563069857 -0.5760995089504446
000720 53 a7 9e 12 e5 dc d0 bf da 8d ab 8a fa 14 c0 3f
       -0.2634823495705991 0.12564021845820045
000730 5e 56 e8 96 36 8a ea bf 20 1a 2e 18 0a 62 dd bf
       -0.8293717334187922 -0.4591088520177511
000740 45 9e e7 a2 28 02 ae bf bb 63 2b 7f f8 8a de bf
       -0.058610219846567925 -0.4772320978059345
000750 4a 9e 0e c7 bb 79 77 3f 74 a3 b6 a6 b1 b1 bb 3f
       0.005731328493233054 0.10818014450218333
000760 7f ff 4c f2 4a 31 dc bf 57 94 2d 43 f8 37 e4 bf
       -0.4405085912912838 -0.6318322479315935
000770 4a 3c 69 41 da 06 d0 bf de bc f9 fd f0 86 e3 bf
       -0.250418247106556 -0.6102223358592729
000780 54 37 4c 74 9d d0 b9 bf 9e 19 0f dc 5c f8 a6 3f
       -0.10083946313190256 0.044863607275647185
000790 b0 49 af b2 9f 6d ea bf b9 c5 c2 e3 51 58 c4 bf
       -0.8258818139968778 -0.15894530888685468
0007a0 83 d4 d3 49 df 8d d6 3f 13 29 e9 be c7 8d 5e 3f
       0.3524091931315711 0.0018648577348750514
0007b0 74 51 14 70 6e 6b a8 3f e0 d6 99 96 e1 fb f1 bf
       0.04769463651806208 -1.1239944346283934
0007c0 70 66 90 b3 af 9e c4 3f f7 9f 04 16 14 38 ca bf
       0.16109272258545415 -0.2048363788137519
0007d0 9f bd ad f9 e7 0a e0 3f c4 37 60 39 51 5c e3 bf
       0.5013313175713171 -0.6050191994306648
0007e0 16 b7 0a 33 1a 34 a3 bf 61 e9 6a 7e 34 a6 b2 bf
       -0.03750688431806119 -0.07284858785979999
0007f0 c7 75 4b 4a ae 02 e9 bf 6c bf 3f 2c c4 cd eb 3f
       -0.7815772486753126 0.8688679565657202
