federico/weights/sgdheu-44/bias_u.npy (npy, 80128 bytes, 1 tensors)

array f8 [10000]
00000000: d44b 2881 49de c43f 0901 6ef3 d54b d93f
00000010: b35a da2e b48c d1bf 3c4d d76d 151e af3f
00000020: 1d6d 020a e595 d23f 7db4 67b4 8eda b73f
00000030: 0fb9 804d 4be9 85bf bca0 de35 2089 d03f
00000040: ecef c953 7767 e3bf c05a 7f09 87e6 db3f
00000050: f39f cfd6 1fe8 d93f 3ff2 6cda e154 bd3f
00000060: 806d eb88 b471 a3bf 706a 2830 a65b a0bf
00000070: f3f0 802c d7b0 c7bf 0b3d 7d45 628b a13f
00000080: 084e d371 a6f1 a33f 4fe9 f0bb e4b9 933f
00000090: 29ed 66bb 188d d63f 2899 a874 397e aebf
000000a0: 3428 7403 eb06 babf de83 9917 a4de d5bf
000000b0: 5113 421d e71f e53f 31c7 3ac9 36d5 ce3f
000000c0: 70f8 6467 ae95 cebf f700 06d2 f622 d13f
000000d0: 354d 59cc f84f c0bf 78f4 5172 b3f7 a43f
000000e0: 9775 3189 97d6 d0bf aff2 2a32 7f27 a13f
000000f0: 126c 063a b2cd ca3f 5a09 6742 1be1 d93f
00000100: 0123 6037 7b3c d33f fe65 e0c9 d3f3 bb3f
00000110: c2a6 56f7 c95a c3bf 7e7e 2314 3e52 cabf
00000120: 4d0b 64e3 a373 c83f 7449 80b3 e599 ea3f
00000130: 66da b59b 40f6 d03f 892a aba5 81c1 ca3f
00000140: 7952 7e12 1a76 d03f 5a24 be78 5916 d93f
00000150: 108b da9b 7883 ad3f ea8a d11b 2664 e63f
00000160: 1999 4f58 76de bc3f db7b fa8d 7c09 bdbf
00000170: 1bed 5461 802d d5bf a768 2c7a db52 d3bf
00000180: e281 552e d650 ba3f 3765 bcb7 1ac5 ce3f
00000190: 8101 bd1f f922 8b3f 3b56 248f d2fd 86bf
000001a0: 5199 a179 5bde a2bf 55c9 6697 f47e c53f
000001b0: 8ba3 c71e cc88 d13f 5823 7015 de6e d33f
000001c0: 5e5a fae9 0b71 e73f e248 09de d6b9 8bbf
000001d0: 6150 03e5 baa3 a43f 0c0d 2769 8ccf babf
000001e0: 72d6 cf7c a5d2 dbbf 49ee 54ad 08d6 adbf
000001f0: f0c8 2fc9 9862 e53f 07fb 562e 3a34 8b3f
00000200: 9978 3151 05c9 eb3f 403f ff13 d088 d63f
00000210: 8cf2 454c 0aa5 cf3f 1cce ef51 35e4 e63f
00000220: 5df0 f716 0919 b8bf ad2d d217 0bc6 d53f
00000230: 8309 7d33 0162 c6bf e054 466d 63f8 de3f
00000240: efbe b94f 7dfa c33f d001 6c11 0751 c13f
00000250: 2054 d0c8 7b56 b7bf eb6c 8bbb b3b8 e03f
00000260: fe4b 9fd0 034c d9bf d058 7ad6 1498 d73f
00000270: 6355 28ae ac9c d23f 9607 db46 95c9 debf
00000280: bbb0 2e21 db84 d43f 4ecd 773e 548b 9b3f
00000290: fbf8 5969 01d5 dc3f dc29 4546 33c0 b8bf
000002a0: 0b9a 8710 3b44 d1bf 90d1 ec13 9119 d53f
000002b0: 2017 adf8 91a7 babf d461 6047 090e b8bf
000002c0: df2c 1729 2e52 b13f 10c4 bcd9 02f6 db3f
000002d0: 1d6a c85c bddc c93f 03d5 0eb3 0a8c d5bf
000002e0: 5f2c 6846 1d1b ce3f dc35 47bc dceb ae3f
000002f0: 70e6 196a 588d b3bf 6b77 cb33 1a51 e73f
00000300: e7bd 68b0 9015 be3f 23fb 8b45 b515 d5bf
00000310: af7b a78e 10bb c2bf c6ed 32c1 b0ac 94bf
00000320: 231d 03fd f479 a63f a6d0 9fcc 4410 e03f
00000330: bd25 37b0 a3f1 d03f d01d e238 5b6d c93f
00000340: 9185 5934 48e8 b43f 4017 c207 71fe 6cbf
00000350: 6520 5f62 b5fc d23f 1cde 56ec 56a3 d63f
00000360: a32a ace0 062e dfbf 02f4 d7ea addc b13f
00000370: 2628 52e1 adca 433f cde1 a6f4 271d 3b3f
00000380: 7955 5450 fed5 a13f 8baf 9cbd 6d02 8e3f
00000390: 1995 ba0f 852d e73f 6b3b d899 db75 c73f
000003a0: 95fd dc1b b978 b0bf 75eb 844a 9797 c4bf
000003b0: fb0c 7e6f 8409 673f b9e0 48ed 5262 d2bf
000003c0: b674 1d57 bac1 c1bf db79 a435 4ece d33f
000003d0: 0025 69b4 5193 ddbf 8a3d 9397 0028 cb3f
000003e0: ea90 bb26 89e5 d23f 7f1a 7b83 5a93 d2bf
000003f0: a8f4 e2fc 16c9 d03f 2705 2026 b3f8 e6bf
00000400: d50b ce22 59d1 bf3f fbe9 2207 905f c9bf
00000410: 24f2 7d77 6d5f ba3f 9e51 83bf f6da 9c3f
00000420: cb28 9ba5 8738 d23f 513a ea20 f933 cfbf
00000430: f903 3705 233f b5bf f852 99b8 81f5 d5bf
00000440: f95d 25d4 abab e13f 2922 39a4 97d3 e13f
00000450: db70 4734 c4e3 a5bf 2287 3c8d 2f54 ca3f
00000460: 2294 c78b 3431 bd3f 477f 94f9 beb9 a13f
00000470: 6ad2 bc4d 03f7 d03f c526 41af d3d2 21bf
00000480: b1bb a3fe c45a dd3f eac9 216e ec15 653f
00000490: d3bf 8f0a 35ba b8bf 01d7 faaf e0e8 bb3f
000004a0: 4a9f 92c9 90c8 8f3f 0e3f e9f3 ccaf cc3f
000004b0: 0e9a 0d37 03a7 d73f a9e1 e9be 1f86 b7bf
000004c0: 22ca 88a1 b235 ccbf 2667 5305 d3cc bc3f
000004d0: 009f 3d4d a4a7 d53f 1c48 e416 7362 da3f
000004e0: 38f2 18d8 b6ca cb3f 286e b31a 6f20 b03f
000004f0: 9ccb 357e 8e65 be3f 22d0 1de4 39ea b93f
00000500: a1cb cb8d 076a d63f 4a3c a93d 1145 e43f
00000510: 3b94 ffe4 64e8 d83f da7e e14d 16c2 e03f
00000520: 671e 6e82 72ec 9abf e7b9 1b52 1fb1 b03f
00000530: b103 f583 06b7 e0bf c762 3243 31a4 cbbf
00000540: 4059 b910 8fc1 e73f 683d e655 df9d b63f
00000550: e4e7 2436 fde2 70bf 1109 9272 ef2b d13f
00000560: 9fbb a198 8c36 d7bf dda0 2cbd 342d ae3f
00000570: 1960 3602 1e50 c43f a327 57e2 750f b3bf
00000580: 410a 3c0c 0407 cdbf c388 9209 1a08 ae3f
00000590: 2bd1 4c9b fa64 cdbf fc2a 14e0 55c1 cebf
000005a0: 4813 14cc 80bb c4bf 2b3f cbe9 9163 f43f
000005b0: bb5d afc2 62a5 ae3f f1a2 66f2 9487 e73f
000005c0: 4638 eef4 c3fa 8dbf f7c7 0770 99a9 d03f
000005d0: 0e48 3738 d7a6 c4bf d578 b2f3 a977 bcbf
000005e0: 624e 9f15 c193 d43f a1a6 f4c6 8572 c6bf
000005f0: 1e14 aeec df25 e53f 080f 61e9 2055 c0bf
00000600: 5caa 9b1a 7216 c6bf fe5e e2c9 1c9d d1bf
00000610: 3cb8 4f49 616f e53f 0647 c002 5937 d23f
00000620: 797e 1725 4fcc d4bf cad9 3459 80eb e5bf
00000630: 16b9 4bd8 475e b4bf 50a2 472c 74b5 983f
00000640: 6a9a 27af 0a81 ce3f df2f 24e5 0025 b1bf
00000650: a8d9 a0d1 8b7c a53f 8db4 f49f c623 c43f
00000660: c70d 24aa f91a c83f d7a1 ba4d cf67 d33f
00000670: dfa9 a7bc df09 d93f 313a d246 d414 c9bf
00000680: 3caf f3e5 f9b2 d8bf 0b6a 5de9 233a 7cbf
00000690: 0081 f15e dd5b 9e3f 715e a62b 5ce8 c03f
000006a0: d8b6 b325 c19c a43f 85fc 8e97 b900 923f
000006b0: 26f4 90d5 69d2 b2bf c67d 10d4 b4f5 e43f
000006c0: 8919 da76 f13d 8f3f e02b 000a 2f1e aa3f
000006d0: ca19 659d d2c1 b43f 8096 3459 ba68 b4bf
000006e0: 47db 4223 0a4a 813f 8e9e b3f8 8fe5 e53f
000006f0: 3c4a fdc0 3c26 a1bf 1259 889a c13d bfbf
00000700: d746 4901 a2d0 b43f 981b 38b7 3b46 e73f
00000710: 36ff d13f 7bc0 a63f 4142 0ad7 fc86 ea3f
00000720: 02bb 5aa1 e969 a4bf 39a9 6236 4c38 813f
00000730: db88 69d6 4ce0 d03f 191c 7baa 9139 d7bf
00000740: e375 b3a1 9e2f d23f ba91 2895 5ae0 8bbf
00000750: 9415 1597 194f 843f 1e32 cf30 b7f9 d33f
00000760: e2ef 25aa 8705 a8bf e604 fa0d 5b80 d53f
00000770: ebdc b091 f6d1 ce3f 3539 f025 f497 b23f
00000780: 9996 dba9 96d6 dbbf 8424 4add 9886 c63f
00000790: efcb 5c91 612f 91bf 1c7c b39c ab2d c43f
000007a0: 3f2e 5dbb 7936 a83f dab7 b30c 4699 d5bf
000007b0: ca23 2146 76cd c03f a622 6420 2271 c2bf
000007c0: 3045 0da5 46e7 c43f 4937 6998 62a5 a53f
000007d0: 34d8 83bc 4d47 cc3f 30e7 c81a ab85 d33f
000007e0: 76f8 35c0 05e7 be3f fed1 6f14 71df 92bf
000007f0: b260 9157 ef90 aebf 1b75 f698 e610 ce3f
0.16303366476549164 0.39525364658767664 -0.274212880854445 0.0607763954718856 0.29039884545791655 0.09317867187901814 -0.010698879530619125 0.2583694959707932
-0.60638014187816 0.4359452812908948 0.40479274728431774 0.11457645018249084 -0.03797687693960494 -0.03194922769417452 -0.18508424447089275 0.0342665395570468
0.038953019518569276 0.019263814898502315 0.352361853608914 -0.059556766024160546 -0.10166806063003336 -0.3417139273133766 0.6601443835685165 0.24088177514709622
-0.23894290970378362 0.26775904188254124 -0.12744054773302485 0.040952308373541635 -0.26309765241406907 0.03350446212195856 0.20940234978920153 0.4043644093000204
0.3005664864327145 0.10918925932528364 -0.15120815827440565 -0.2056348417599913 0.19102905848566323 0.8312862878686205 0.26503005224313936 0.20903034772193888
0.2572083645439203 0.39198910514148155 0.057643670106037104 0.6997252028780541 0.11276950508144913 -0.1134260031344491 -0.33090219025662443 -0.3019322102642356
0.10279596930696003 0.24039014789085808 0.013250299721790483 -0.011226315492005692 -0.03685270175701539 0.16793687241222224 0.2739744473060958 0.3036418160777905
0.7325496263391178 -0.013538054133423964 0.04031166120117358 -0.10472943846894028 -0.4347318381181601 -0.058273574026739335 0.6682857446124029 0.01328320936124562
0.8682886682324976 0.3521003909381655 0.247224128001012 0.7153574562384537 -0.09413201151613877 0.340212605726914 -0.17486586584170646 0.48391042395935635
0.15608183281755525 0.13528526640585747 -0.09116338398628487 0.522546640680415 -0.39526458142535137 0.3686573118697085 0.290812654567466 -0.4810536567639415
0.3206088851973267 0.02689868575357695 0.4505008248160178 -0.09668274369793245 -0.2697894727156444 0.3296854681568897 -0.1041194183463543 -0.09396417610731272
0.06766022208391885 0.4368903280583831 0.2020489409486154 -0.33667247282149065 0.23520246446455226 0.06039323614423228 -0.07637550917015701 0.7286501895539294
0.11751655871261556 -0.32944995681457295 -0.14633376088656067 -0.020190011779716042 0.04389920795943627 0.5019859310691757 0.2647484989980418 0.19864979054930965
0.08166934278553685 -0.003539295923533553 0.29667410475349804 0.3537194545747029 -0.4871842569415696 0.06977354987607501 0.0006039952301233372 0.00041372514229068015
0.03483576517661908 0.01465306982898775 0.724306612701784 0.18328423511453748 -0.06434208803420056 -0.16087618960031205 0.0028121554022973983 -0.2872512166245645
-0.13872460607209341 0.30946688879512657 -0.46211664789423423 0.2121582737076831 0.29525975019920614 -0.29024374809197434 0.262273547133939 -0.7178588623648111
0.12428814983108734 -0.1982288393827075 0.1030186096886117 0.028179030837081613 0.28470030949086994 -0.24377359492469222 -0.08299464108769418 -0.34310954119909765
0.5522059577442057 0.5570791442378936 -0.04275334489986601 0.20569414516744994 0.11403206265056601 0.034620254484478745 0.26507647124825573 -0.00013598283806209012
0.45866513125559566 0.002573930528393155 -0.09659129627084377 0.10902218147642985 0.015519267226707396 0.22411500844690874 0.3695686376217119 -0.0918903199288993
-0.2203887261144511 0.11250037078880534 0.33835704367673713 0.4122588847686772 0.21712384750016311 0.06299490358235771 0.11873713094045829 0.10123025721787873
0.35022152755044017 0.6334310726468939 0.38918421137924825 0.5236922761068528 -0.026292599879097624 0.06520267252538013 -0.5223419739996783 -0.21594825535864556
0.7423777891770342 0.08834644171860406 -0.004122723681854599 0.2683066004612025 -0.3627044191879864 0.05893864449746087 0.15869498355891734 -0.07445465827836854
-0.22677660558118087 0.05865556113100603 -0.22964413245211665 -0.24027512971255038 -0.1619721409298569 1.274309075601148 0.059855543389569964 0.7353005155938189
-0.014638453399836614 0.2603515237852884 -0.1613415741435919 -0.11120092582357029 0.3215182028918432 -0.17536995138771252 0.6608733770996229 -0.12759791751351934
-0.1725599889681061 -0.27521438327083547 0.6698461944449785 0.2846281554094364 -0.3249700414871551 -0.684997724753708 -0.07956360846194274 0.024129691317201385
0.23831304123378355 -0.06697087854644178 0.04196583684863536 0.15734179315896704 0.1883232193723485 0.3032110461304262 0.39122765944799015 -0.19594815691057613
-0.38592383819808496 -0.006891384391418241 0.029647311134227472 0.1320910657056973 0.040258441784187304 0.017580890536689004 -0.07352315391558814 0.6549934522517382
0.015254866065572486 0.05101153370932088 0.08108249991082697 -0.07972302129618392 0.00844200058086887 0.6842727525190229 -0.0334948525984555 -0.122036075809181
0.08130848437692904 0.7273233965396342 0.044437266865314504 0.8289779853822169 -0.03987054915102385 0.008408160600386171 0.2636901944989753 -0.3628887333729281
0.28415647307505604 -0.01361151473708665 0.009916496203582516 0.312116429963483 -0.04691719009403507 0.335959209107456 0.240782567155953 0.07263112951497848
-0.4349724444167378 0.1759825783267709 -0.016782307145330518 0.15764374877377996 0.047290615197735246 -0.3374800800364689 0.13127020286836305 -0.14407755452727605
0.16330798205539443 0.04227741346822584 0.22092601494631625 0.30503347030354444 0.12071262304923089 -0.018430487511027487 -0.05969951576179379 0.23489077061541583
